…
56, 32, 1], "template_args": {"n_filters": 256, "n_conv": 256, "n_recurrent": 512, "ker_size": 3, "n_dense": 256, "timesteps": 32, "channels": 1, "dropout_rate": 0.0, "activ_func": "relu", "n_stacks": 8, "dilations": [1, 2], "use_skip_connections": "true", "return_sequences": "true", "bias_initializer": "zeros", "strides": [2, 2]}, "time_slice": [16, 17], "summary": "_________________________________________________________________\nLayer (type)                 Output Shape              Param #   \n=================================================================\ninput_1 (InputLayer)         (None, 256, 32, 1)        0         \n_________________________________________________________________\nconv2d_1 (Conv2D)            (None, 128, 16, 256)      2560      \n_________________________________________________________________\nbatch_normalization_1 (Batch (None, 128, 16, 256)      1024      \n_________________________________________________________________\nactivation_1 (Activation)    (None, 128, 16, 256)      0         \n_________________________________________________________________\nconv2d_2 (Conv2D)            (None, 64, 8, 64)         147520    \n_________________________________________________________________\nbatch_normalization_2 (Batch (None, 64, 8, 64)         256       \n_________________________________________________________________\nactivation_2 (Activation)    (None, 64, 8, 64)         0         \n_________________________________________________________________\nconv2d_3 (Conv2D)            (None, 32, 4, 16)         9232      \n_________________________________________________________________\nbatch_normalization_3 (Batch (None, 32, 4, 16)         64        \n_________________________________________________________________\nactivation_3 (Activation)    (None, 32, 4, 16)         0         \n_________________________________________________________________\nconv2d_transpose_1 (Conv2DTr (None, 64, 8, 16)         2320      \n_________________________________________________________________\nbatch_normalization_4 (Batch (None, 64, 8, 16)         64        \n_________________________________________________________________\nactivation_4 (Activation)    (None, 64, 8, 16)         0         \n_________________________________________________________________\nconv2d_transpose_2 (Conv2DTr (None, 128, 16, 64)       9280      \n_________________________________________________________________\nbatch_normalization_5 (Batch (None, 128, 16, 64)       256       \n_________________________________________________________________\nactivation_5 (Activation)    (None, 128, 16, 64)       0         \n_________________________________________________________________\nconv2d_transpose_3 (Conv2DTr (None, 256, 32, 256)      147712    \n_________________________________________________________________\nbatch_normalization_6 (Batch (None, 256, 32, 256)      1024      \n_________________________________________________________________\nactivation_6 (Activation)    (None, 256, 32, 256)      0         \n_________________________________________________________________\nconv2d_transpose_4 (Conv2DTr (None, 256, 32, 1)        2305      \n_________________________________________________________________\nactivation_7 (Activation)    (None, 256, 32, 1)        0         \n=================================================================\nTotal params: 323,617\nTrainable params: 322,273\nNon-trainable params: 1,344\n_________________________________________________________________\n", "architecture": [{"layer_type": "conv2d", "layer_args": {"filters": 256, "kernel_size": 3, "padding": "same", "strides": [2, 2], "bias_initializer": "zeros"}}, {"layer_type"
…
